Watch/src/main/assets/ibrushtf.tflite (tflite, 917984 bytes, 14 tensors)

arith.constant f4 [16, 32]
000000 d8 0b 3b 3e 7d bf 16 3e 43 00 af be 80 31 bf be
       0.18266237 0.14721484 -0.34179887 -0.37342453
000010 63 9b b7 be cc 13 08 be 84 92 e5 be 31 2e ed be
       -0.35860738 -0.13288802 -0.44838345 -0.46324304
000020 e6 cc b9 3e 16 47 09 be ca 19 d0 bd 0e b0 1c be
       0.36289138 -0.13406023 -0.10161169 -0.15301535
000030 71 3b e0 3e fa 99 40 be bd e7 0d be 98 02 ac 3d
       0.4379535 -0.18808737 -0.13857932 0.08398932
000040 9c ed 06 bf 1f a2 ed 3e 49 e0 81 be 89 85 4d bc
       -0.52706313 0.4641275 -0.25366428 -0.012544044
000050 4f 13 72 3e 21 7b df 3d 65 bf ff be a2 49 df 3e
       0.23640178 0.10912157 -0.4995071 0.43610865
000060 05 cb 49 3e 54 33 81 3e 54 d0 2a 3e 8c 33 25 bd
       0.19706352 0.25234473 0.16681033 -0.040332362
000070 9d cc 0e 3f 53 5f e6 3d 67 13 c0 be 5b 03 a0 be
       0.55780965 0.112486504 -0.37514803 -0.3125256
000080 59 46 38 be cf 1f 08 3e de 3a 8f 3e 74 50 d3 be
       -0.17995586 0.13293384 0.279746 -0.41272318
000090 e3 9d 12 3e af 95 81 be 33 71 96 be b5 8e d7 be
       0.14318042 -0.25309512 -0.2938324 -0.42101064
0000a0 e0 e5 a0 be c8 63 5e 3e 83 ee 8a be 46 4d a6 3e
       -0.3142538 0.21717751 -0.27135095 0.3248083
0000b0 c1 5a 05 be cf 1e 12 3e fa 9b 35 be 67 32 8e 3e
       -0.13022901 0.14269565 -0.17735282 0.2777283
0000c0 7a 5d 0a bf 24 07 a9 be dc 91 13 bf 0f 37 7d 3e
       -0.54048884 -0.3301326 -0.5764444 0.24728034
0000d0 a8 f4 8f be 78 d0 88 3e e1 33 42 be d6 13 47 be
       -0.28116345 0.2672155 -0.18965103 -0.1944116
0000e0 f4 7c b3 bd 63 01 a0 3e a4 6c 1e 3e 19 bc f8 3e
       -0.08764067 0.31251058 0.1547113 0.48581007
0000f0 3f 02 9c bd 68 a9 93 be 47 0e 94 be 36 64 1d be
       -0.07617616 -0.28840184 -0.28917143 -0.15370259
000100 03 14 a1 3e b9 15 d2 3e 5e ce 8d 3d a1 8a c7 3d
       0.3146058 0.41032198 0.06924127 0.09743238
000110 c1 93 4e be d4 78 25 3e f5 36 3d be 51 ba d4 be
       -0.20173551 0.16159374 -0.18477996 -0.41548398
000120 46 48 bd 3e 58 eb d6 be df f7 d6 be 7d 28 59 3e
       0.36969203 -0.41976428 -0.41985986 0.21206851
000130 47 4f 59 bd 81 64 97 be ea 83 91 3e b6 ba fe bc
       -0.05305412 -0.29568866 0.28420955 -0.03109489
000140 dc 9d 46 3b d3 5e 83 bd b8 a1 a9 3e 48 8a 91 3d
       0.0030306494 -0.06414571 0.33131194 0.07106453
000150 94 81 88 be 70 36 9f 3d a3 00 97 bc 8c 3c 50 be
       -0.2666136 0.07774055 -0.01843292 -0.20335597
000160 53 f3 bf 3e eb 56 af 3e 9b a3 8e be 1d cc 44 3e
       0.3749033 0.34246 -0.27859196 0.19218488
000170 70 70 03 3d 34 d8 ec 3e ca f7 fa 3e f9 1c 14 3f
       0.03208965 0.462587 0.49017173 0.5785671
000180 32 7a a0 be 3d dc af be 34 a5 a0 3d f1 b9 c8 be
       -0.31343228 -0.34347716 0.0784401 -0.39204362
000190 c6 4a 61 3d 7a cf 9a be f9 b6 df be d3 c8 05 bf
       0.05500295 -0.30236417 -0.43694285 -0.5225956
0001a0 ee ee 76 3e 2f 24 ee 3e 2a be ab 3d ad 74 ec 3d
       0.24114582 0.4651198 0.0838588 0.11545692
0001b0 d9 28 86 bd 97 66 1f be d8 d4 95 bc 26 cc c2 3e
       -0.0655076 -0.15566479 -0.018289968 0.38046378
0001c0 1f 66 20 be bc 5c d9 be 90 54 99 3d cf 95 5e bc
       -0.15663956 -0.42453563 0.07486832 -0.013585522
0001d0 9d af b7 3c 42 33 fa 3d e0 57 ac be 06 a6 04 bd
       0.022422606 0.12216808 -0.33660793 -0.032384895
0001e0 87 85 6c be 3d d5 58 be 33 42 f8 be 85 60 a1 be
       -0.23097812 -0.21175094 -0.48488006 -0.3151895
0001f0 48 78 b9 bd 3d 31 75 3e a9 d0 13 3f f9 c1 d3 3e
       -0.09056145 0.23944564 0.57740265 0.41358927
000200 8d 35 1d be fe 92 6a be 20 16 81 3e 2e ca 49 be
       -0.15352459 -0.22907636 0.25212193 -0.19706032
000210 b3 6b 5a 3d 8b c3 0d bf a8 ef ad be df ed d8 3d
       0.053325366 -0.553765 -0.33971906 0.10592245
000220 b7 14 ef be a8 53 7f 3e ad 87 d5 3e db 17 f1 3e
       -0.46695492 0.24934256 0.41705075 0.47088513
000230 83 be e2 be b6 b9 c3 3e 86 d4 97 3e 13 cd ce 3e
       -0.44285974 0.38227624 0.2965433 0.40390834
000240 90 e1 6f 3c 34 34 fd be 47 65 94 3e 8c 5a fa bd
       0.014641181 -0.4945389 0.28983518 -0.12224302
000250 84 cb 32 be 49 67 9f be fc bc eb be 1a 75 b6 be
       -0.17460448 -0.31133488 -0.4604262 -0.35636216
000260 1b 58 e1 3e 19 c9 d9 3e b9 a8 d0 be 0d 13 9c 3e
       0.44012532 0.42536238 -0.40753725 0.30483285
000270 02 fb b7 be b5 45 09 be 8a f9 e2 be e7 e7 4e 3e
       -0.3593369 -0.13405497 -0.44331008 0.20205651
000280 5a 2f ff 3d 3b bd 03 be 4d d6 af be e1 50 cc 3c
       0.124602035 -0.12865154 -0.34343186 0.02494091
000290 30 1f b5 3e 4b 87 df be 7e d5 25 3e 73 71 71 3e
       0.35375357 -0.43657908 0.16194722 0.23578434
0002a0 db bd b7 3d ff 04 fb be 05 16 d6 be b1 ae 77 3e
       0.08971759 -0.4902725 -0.41813675 0.24187733
0002b0 06 13 ff be 87 14 ba 3e 7d c8 3f 3e 5f 4a 0d bf
       -0.498192 0.36343786 0.18728824 -0.55191606
0002c0 97 0b 9c 3e 30 0a 69 3e 7f 3c 06 bf 88 d4 da 3e
       0.30477592 0.22757792 -0.5243606 0.42740273
0002d0 0d 2e a8 3e 98 f9 b6 be fc d5 a6 be 39 53 8b 3e
       0.32847634 -0.357373 -0.32585132 0.2721193
0002e0 18 bd c6 be 36 bd 45 be d1 83 a4 be b0 16 d5 3d
       -0.38816142 -0.1931046 -0.32131818 0.10404718
0002f0 fb 13 e1 be d3 a2 20 bd 66 7c af be 28 a1 d7 3d
       -0.43960556 -0.03921778 -0.34274596 0.10528785
000300 85 e6 38 bd e7 62 65 bd c3 63 91 3e 30 68 59 3e
       -0.045141716 -0.056002524 0.28396425 0.2123115
000310 e5 db 9e 3e 4c 2a 6d be f1 a5 83 be b7 d2 d8 3d
       0.3102714 -0.23160666 -0.2571254 0.10587066
000320 79 2f 0a 3e e3 6a f5 3e 4f 0b 06 bf 8d 87 b5 3e
       0.13494672 0.4793311 -0.52361006 0.3545498
000330 4c e1 f8 3e d2 bc 83 be 4e fe 22 3e 30 84 43 3d
       0.48609388 -0.25729996 0.15917322 0.047733486
000340 25 81 95 be 85 8a 1f be b7 b0 dd 3a 44 4c ce 3c
       -0.29200092 -0.15580185 0.0016913627 0.02518285
000350 12 83 12 3e 1c d0 5c be b0 2a 83 bd 2c 94 a7 3d
       0.14307812 -0.21563762 -0.06404626 0.081825584
000360 58 27 59 3e 1c 98 b9 3e 5f cf d7 3e b0 44 8a bd
       0.21206415 0.36248863 0.421504 -0.06751382
000370 fd 06 15 be a4 22 f5 3d b0 66 d0 be 36 d0 b6 be
       -0.14553447 0.11969498 -0.40703344 -0.35705727
000380 5b 92 f5 be f1 10 64 3e 9c 45 27 be 0c 65 a4 be
       -0.47963223 0.22272088 -0.16335148 -0.32108343
000390 2d d0 8f be 53 b3 bf 3e 55 5d b8 3e fd 26 f2 be
       -0.28088513 0.374415 0.36008707 -0.4729537
0003a0 ed 3c 45 be 74 7c aa 3e 54 a6 5d be 0d 6d 2e bd
       -0.19261523 0.33298075 -0.2164548 -0.042584468
0003b0 5f 80 ca 3e 3a 71 1d 3e 84 15 4a be 8c 41 9d 3e
       0.39551064 0.15375224 -0.1973477 0.3071407
0003c0 24 ac 5f 3e 24 d8 6f be fc b3 8e bd 4c e1 1e bd
       0.2184301 -0.23422295 -0.06967923 -0.03878908
0003d0 1e 87 e3 be 31 35 36 be a8 fe 60 be 9b 64 4f 3e
       -0.44439024 -0.17793728 -0.21972144 0.20253222
0003e0 fb d5 4c 3e 85 c2 0b 3e 5e a7 8b 3b 65 bc bf be
       0.20003502 0.13648422 0.004261895 -0.3744842
0003f0 ef f9 09 bf f6 99 d4 be dd d8 25 be 63 2b f7 bd
       -0.53896993 -0.41523713 -0.16196008 -0.12068822

arith.constant1 f4 [16]
000000 b1 2d 54 3f f7 5f e7 3f 95 64 34 bf 7c c0 bd 3f
       0.8288222 1.8076161 -0.70465976 1.4824367
000010 73 99 94 3f 14 c1 bd 3f a3 d1 ac bd 2f 64 c7 3f
       1.1609329 1.4824548 -0.084384225 1.5577449
000020 51 29 17 be 0d fb bb bd 52 df 91 bf 69 16 48 3f
       -0.14761855 -0.091787435 -1.1396277 0.78159195
000030 52 1f da 3f 8e 3b 01 3f 18 c2 5d 3f a8 7d e7 3f
       1.7040808 0.504815 0.8662429 1.8085222

arith.constant2 f4 [32, 64]
000000 3b 05 98 3d be 81 4d be 89 39 72 be 20 e1 af bc
       0.07422873 -0.20069024 -0.2365476 -0.021469653
000010 62 c3 f7 bd 7a 6f cb bc e4 9d 13 be 81 3e 79 be
       -0.12097813 -0.02483343 -0.14415699 -0.2434025
000020 41 d0 a2 3c b8 78 b8 bc 78 28 8f 3e b6 87 0d be
       0.019874694 -0.0225185 0.27960563 -0.13821301
000030 a4 81 d3 3c 31 23 1a be 70 6d 7a be 18 29 26 3d
       0.025818653 -0.15052487 -0.2445581 0.040566534
000040 e4 aa f0 3d ef 73 e6 bc f1 2d 10 3d 39 82 04 3e
       0.11751345 -0.028131453 0.035200063 0.12940301
000050 01 59 6e be 22 04 f0 bd d3 53 09 3e c9 12 86 bc
       -0.2327614 -0.11719538 0.13410883 -0.01636638
000060 86 ea d0 bb 74 b7 cb 3c fe e8 e4 bd d5 b3 5b be
       -0.0063756136 0.02486775 -0.11177252 -0.21455319
000070 00 f8 05 3e 71 14 1c be dc 15 ed bb ef 40 10 be
       0.13082886 -0.15242173 -0.007235272 -0.1408727
000080 ca 7a 20 be f9 f0 3b bd 28 74 86 3d 18 12 2c 3e
       -0.1567184 -0.045884106 0.06565124 0.16803777
000090 f1 d0 28 be f1 b8 4f 3d bd 68 4c 3e 78 cf 70 be
       -0.16485955 0.050713483 0.1996183 -0.23516643
0000a0 91 2a 8d 3d 3c 88 30 3d f1 57 88 3d 4f 42 87 be
       0.068928845 0.043098673 0.066573985 -0.26417777
0000b0 a8 dd 74 be 75 83 07 be 7f 6e ed 3d 7a 04 e0 bd
       -0.2391268 -0.1323374 0.11593341 -0.10938354
0000c0 37 f1 d4 3d ed eb ea bd f1 ea 70 bc 29 68 b2 bd
       0.103975706 -0.114707805 -0.014704452 -0.08711273
0000d0 0f 0a 72 bd 9e 60 dd 3d b1 be da bd 97 63 11 be
       -0.059091624 0.10809444 -0.10680903 -0.14198147
0000e0 8b ee 48 be 3f 8a 4e 3e fa 81 c6 bc cb 54 94 be
       -0.19622247 0.20169924 -0.0242319 -0.28970942
0000f0 a8 80 aa 3d 7a 5e 0e 3e ca 15 68 bd a6 0b a2 be
       0.083253205 0.13903227 -0.056661405 -0.31649512
000100 02 70 5f bd cf be 98 be 51 6b 36 3e 4a 11 89 3d
       -0.05455018 -0.29833075 0.17814375 0.06692751
000110 7c d3 6e be 45 23 bb 3d dc b0 57 bd b0 ee 18 bc
       -0.23322862 0.091375865 -0.0526589 -0.009334251
000120 51 aa 60 3e f6 19 46 3e 7e 2a eb bd b3 b6 98 bd
       0.2193997 0.19345841 -0.11482714 -0.07456722
000130 cf 6b 81 3d d8 8c 42 be 57 e1 9e 3e 45 8a 11 be
       0.06319391 -0.1899904 0.31031296 -0.14212902
000140 49 35 7a be d0 43 a6 be fe 88 77 3d 08 db dd bd
       -0.24434389 -0.32473612 0.06043338 -0.108327925
000150 99 56 76 3e e9 f1 07 3e 41 b7 92 3e d8 8a 60 be
       0.24056472 0.13275875 0.28655437 -0.21927965
000160 84 1b a1 bb 08 00 2b 3e 11 ae 98 3e f9 03 fd 3d
       -0.00491661 0.1669923 0.29820302 0.12354273
000170 0c 7c 7a be db 21 80 3e ab cc e2 bd b6 c2 5f be
       -0.24461383 0.2502583 -0.110741936 -0.2185162
000180 dd 27 66 be 50 9d 5c be 08 65 44 be c0 0d 67 be
       -0.22476144 -0.21544385 -0.19179165 -0.22563839
000190 15 cc 45 3e 41 5b 42 be 30 04 0c 3c 9e a1 48 3e
       0.19316132 -0.18980123 0.00854592 0.19592902
0001a0 54 8d d6 3d 7d f8 85 3d d2 f3 50 3e ab df 9b 3d
       0.10476175 0.06541536 0.2040551 0.07611021
0001b0 12 78 48 3e 9c ba a7 bd e8 19 9b be 78 c0 88 bc
       0.19577053 -0.0818989 -0.30293202 -0.016693339
0001c0 2a 40 be bd 35 e5 fa bd d4 cf 5a bd 6c f3 09 bd
       -0.09289582 -0.12250749 -0.053420857 -0.03367941
0001d0 1f 02 23 3e 9c b2 82 be f5 e4 71 3e e0 e6 e1 bd
       0.15918778 -0.25526893 0.23622496 -0.11030364
0001e0 39 d8 aa bd 53 e9 a2 3d 6b d0 d3 3d 74 4b cd bb
       -0.083420224 0.07954659 0.10342487 -0.006265098
0001f0 d2 5b 0a be ef 1b 25 be e1 c6 65 3e cb 00 94 bd
       -0.13511589 -0.16123937 0.22439148 -0.07226714
000200 d3 6c a1 bd f4 72 64 be cc bc 27 3c 69 36 2a be
       -0.07882085 -0.22309476 0.010237884 -0.16622318
000210 63 d9 5c be 95 e6 5f 3e 73 6b 77 3d 90 1d c0 3a
       -0.21567301 0.21865304 0.060405206 0.0014657248
000220 f1 98 5a 3e e5 84 8e 3d c6 32 23 3e 6a 07 42 bd
       0.21347405 0.06958941 0.15937337 -0.04737035
000230 f8 64 2e bc ed 43 e4 3d c0 b7 90 3e 41 73 4d 3e
       -0.01064419 0.11145768 0.2826519 0.20063497
000240 d5 45 9b bd 81 54 65 be f0 bd 54 3e 89 1e fb 3d
       -0.07581679 -0.22395517 0.2077558 0.122616835
000250 20 c4 0b 3e 99 88 04 be 0f f6 08 3e b2 b6 b4 bd
       0.13649035 -0.12942733 0.13375114 -0.08823909
000260 3d 54 39 3e 47 be 10 3e 51 64 88 3d 80 44 8b bd
       0.1809854 0.14135085 0.06659759 -0.06800175
000270 35 3e de 3d 5d 30 a4 3d 4d 1a 38 3d df 8e 40 3d
       0.10851709 0.08017037 0.044946957 0.047011252
000280 6e 22 9d 3d e5 4b a9 3d 38 05 53 3d 58 b9 03 bc
       0.076725826 0.08266429 0.05151865 -0.008039795
000290 f9 63 50 3b 45 75 65 3e 67 82 18 be a6 b9 8b 3e
       0.003179787 0.22408016 -0.14893495 0.27290076
0002a0 6d cc e7 3d 09 1d e7 bd d0 1b d7 3d 14 07 5e 3e
       0.11318288 -0.11284835 0.10503352 0.21682388
0002b0 ef eb 23 bb 7a 9b 44 be 73 53 67 3e 6b 97 3b be
       -0.0025012454 -0.19199935 0.22590427 -0.1831948
0002c0 09 53 5e 3e b4 24 6a 3e 52 6d 35 3e 39 00 77 be
       0.21711363 0.22865564 0.17717484 -0.24121179
0002d0 27 85 71 be 74 61 05 be 99 dd 80 be 36 b1 55 3e
       -0.2358595 -0.13025457 -0.25169066 0.20868382
0002e0 56 21 06 be a3 17 8c 3e cc f3 9a bd e9 7a 5e 3e
       -0.13098654 0.27361783 -0.07566032 0.21726574
0002f0 45 b1 1f be 80 0f 63 3e 7d bc 07 3e 13 a4 8d 3e
       -0.15594967 0.22173882 0.13255496 0.2766424
000300 dc 6f fe 3d 07 8a 8d 3e 43 25 4e 3e 37 15 87 be
       0.12423679 0.2764437 0.20131402 -0.26383373
000310 3f 97 a6 3e 35 99 e8 bd f8 a6 68 3e 95 8e a6 3d
       0.32537267 -0.11357347 0.22719944 0.08132664
000320 b5 44 8f 3e 14 fb 8b be 11 d5 ee bd 6b 58 69 be
       0.27982107 -0.27339995 -0.11661733 -0.22787635
000330 75 97 93 bd c3 62 31 3e 5e 92 91 bd c2 60 05 3d
       -0.072066225 0.17322831 -0.071079955 0.03256298
000340 09 27 28 3e 80 f0 11 3e a7 2b 7c be 0d 8f 87 bd
       0.1642114 0.142519 -0.24626027 -0.06619082
000350 97 27 44 be a3 4d 95 3d 3d ff fa bc 80 78 2f 3e
       -0.19155727 0.07290199 -0.030639285 0.17135811
000360 f9 dc 5a bd 87 b5 4b 3e c5 6a 50 be 92 ca 16 3d
       -0.053433392 0.19893466 -0.2035323 0.03681428
000370 01 e6 75 3c 25 61 e7 3d 16 48 42 be e0 44 ad 3d
       0.0150084505 0.11297826 -0.18972811 0.084604025
000380 23 db f7 3d 85 87 e7 3d 58 3f 40 3e f5 22 5d 3e
       0.12102344 0.11305145 0.18774164 0.21595366
000390 ae d7 9a 3d 6f c7 48 3e db ae 16 bd 8d 45 e4 bd
       0.07560669 0.19607328 -0.03678785 -0.11146078
0003a0 93 f8 4f be 55 f7 d3 bd 0a a1 50 bd 1b 0c 0e be
       -0.20309667 -0.10349909 -0.05093483 -0.13871805
0003b0 90 c6 6e bd 8e e2 8d bc 35 17 aa 3e d7 01 fd 3d
       -0.058294833 -0.017319944 0.3322083 0.123538665
0003c0 07 24 82 bd cc 19 05 3e da 2a fa bd fb 16 06 be
       -0.06354528 0.12998122 -0.122152045 -0.13094704
0003d0 d8 65 42 3e 65 27 b0 bd 8a 25 83 bd 3a ad bd 3d
       0.18984163 -0.08601264 -0.064036444 0.09261556
0003e0 f1 61 f7 bd 96 6a 15 be 4d 8f 28 3e b5 76 74 be
       -0.12079228 -0.1459144 0.16460915 -0.23873408
0003f0 7a dd 8e 3d ec d7 58 bc 7f 1b a7 bd e5 5d 9b 3e
       0.06975837 -0.013235074 -0.08159541 0.30345073

arith.constant3 f4 [32]
000000 85 ea c2 3f 3a 82 39 3f b1 88 c3 bf aa 35 10 bf
       1.522782 0.72464335 -1.527609 -0.56331885
000010 b5 b0 72 bf 5a 05 f8 be 39 b8 44 be 4a 39 fb bf
       -0.94800884 -0.48441583 -0.192109 -1.9626858
000020 2d 8b 8e 3f 30 e2 00 3e df 15 9a 3f cd 73 1a bf
       1.1136223 0.12586284 1.2037925 -0.6033295
000030 3f 03 ac 3f b0 8e 83 3e b6 0b 92 bb 1f c1 99 3f
       1.3438491 0.256948 -0.0044569625 1.2012061
000040 3f 2c 04 3e 8e bb 9e 3e 12 49 07 3f d5 d7 b2 3f
       0.12907504 0.31002468 0.5284587 1.3972117
000050 fe d8 4b 3f b5 92 9e 3f 6b 5c 8e 3f 1c 7a ff 3e
       0.7962798 1.2388521 1.1121954 0.4989785
000060 06 b7 15 bf ad af 29 3f 7f 48 44 be 86 da 71 3f
       -0.58482397 0.66283685 -0.1916828 0.94474065
000070 b6 84 58 bf 41 2a 31 3e 75 93 17 bf d0 89 85 3d
       -0.845775 0.17301275 -0.59209377 0.06520426

arith.constant4 f4 [64, 128]
000000 16 f7 69 3d 47 52 f3 bb 13 cf f1 3d 5c 9e e6 bc
       0.057120405 -0.0074255797 0.118070744 -0.028151684
000010 ea ba 60 bd 9e 3c 47 bd fe c5 1b 3d 95 27 0d 3e
       -0.054865755 -0.048641793 0.038030617 0.1378463
000020 e9 f5 35 bd 26 6d 27 3d bf db a6 bd 94 01 d3 3c
       -0.04442397 0.040875576 -0.08147382 0.025757588
000030 9d 83 09 be a2 72 33 3e 17 80 03 3e 85 39 13 be
       -0.13429113 0.17524198 0.12841831 -0.1437741
000040 13 72 1a 3d 00 22 e3 bb 1a 55 12 3d 2f 06 fd 3c
       0.037706446 -0.0069315434 0.03572569 0.030886738
000050 7b 71 10 be af 6c 1c be 83 c8 d0 3c 42 de 32 3c
       -0.1410579 -0.15275835 0.025486236 0.010917248
000060 52 bc 5c 3d 3e 3b 40 3e 93 81 db 3d 98 1f fd 3b
       0.053890534 0.18772599 0.10718074 0.0077247135
000070 5d 83 8b bd e4 64 c2 bc 2c 48 01 be 6f 4f 0d bd
       -0.06812165 -0.023729749 -0.12625188 -0.034499582
000080 1b 4b 30 3e 54 8b ef 3a e8 cb f2 3d 1a 08 11 be
       0.1721615 0.0018275776 0.11855298 -0.14163247
000090 24 fb f3 3d 31 b2 06 be 87 a1 03 bc 01 f5 c5 bd
       0.11913136 -0.13153912 -0.008034117 -0.096658714
0000a0 45 93 91 3c 44 63 50 bd 89 ce 29 3e 80 21 4a 3d
       0.017770419 -0.050875917 0.16582693 0.049348354
0000b0 87 c8 53 be 98 bc 8f bd c9 6b e5 bd 0c f1 e2 bd
       -0.20681964 -0.07018393 -0.11202199 -0.11081132
0000c0 89 d4 c9 bd 8e ac 0d be 17 81 30 bd 96 ae 49 3e
       -0.09854991 -0.13835356 -0.04309186 0.19695505
0000d0 8e b9 c2 bb bc af 55 bd 24 a5 25 be 6f 1a 47 bd
       -0.00594253 -0.052169546 -0.16176277 -0.048609193
0000e0 ea 2d bc bd 92 ce 81 bd 4b bc 83 3d 01 42 07 be
       -0.09188445 -0.06338228 0.064323984 -0.13208772
0000f0 c0 0d ca bc 32 36 ca bc 0f 9c 98 3c 99 ce 24 3d
       -0.02466476 -0.024684045 0.018629102 0.04023609
000100 1a 24 8a 3d b5 d1 03 bd 11 b1 7c 3d 61 f7 ef 3d
       0.06745167 -0.032182414 0.0616923 0.11717106
000110 fa 30 be bd 59 31 a4 bd e3 74 01 3e 58 f2 80 bc
       -0.09286685 -0.08017225 0.12642245 -0.015740559
000120 5a 67 2f be 10 18 c2 3c c1 1f 24 be be e0 f5 bd
       -0.17129269 0.023693115 -0.16027738 -0.12005757
000130 ea 78 1d 3e 78 06 79 bd c6 af b9 bd c0 6a 4e 3d
       0.15378156 -0.060797185 -0.09066729 0.050394773
000140 09 02 0e be ba a8 28 3e 35 1c bf 3c 9e 8e 84 bd
       -0.13867964 0.16470614 0.02332888 -0.064725146
000150 ef 9e ad 3d 40 50 0f be df eb 4a 3e a5 35 21 be
       0.0847758 -0.13995457 0.1981654 -0.1574312
000160 4b 5f 7e bd 9b 19 39 bc 14 fa 83 bc 9f 1e fd 3d
       -0.062102597 -0.011297609 -0.016110457 0.12359356
000170 1e 06 40 bd 46 67 69 bd aa 6c ce bc f7 b8 a6 3d
       -0.046880834 -0.056983255 -0.0251983 0.08140748
000180 be 25 c8 3d 04 77 7c 3d 74 bf 30 bd 04 ec e8 bd
       0.09772824 0.06163694 -0.043151334 -0.113731414
000190 9f 86 37 bd fd 0f 8d 3d 61 06 f0 3c ca 72 c3 bb
       -0.04480612 0.06887815 0.029299917 -0.0059646117
0001a0 ae de 04 3a f0 af 0b 3e 11 db 05 3e fd af 2d bd
       0.0005068582 0.13641334 0.13071848 -0.042404164
0001b0 12 46 0c 3d 81 23 ab bd dd a2 c1 bc f5 b7 c5 3d
       0.03424651 -0.08356381 -0.02363723 0.09654228
0001c0 47 de 5d 3d a3 41 ad bd 90 29 03 be b4 a5 11 be
       0.05416706 -0.08459785 -0.12808824 -0.14223367
0001d0 83 b7 2d be 1b ee c3 3d 9b ac 9b 3d c9 1c ce 3c
       -0.16964535 0.095668994 0.07601281 0.02516021
0001e0 19 d6 63 3d 30 62 73 3d a8 24 01 3d e6 45 89 bd
       0.0556241 0.05941981 0.0315291 -0.06702785
0001f0 9e fe 1d 3b 3d ac 95 3d c3 94 16 be 16 f4 98 bd
       0.0024108062 0.073082425 -0.14705186 -0.07468431
000200 ae 7d b3 bc c2 0d da bd 5f 9e f8 bd 62 f4 97 bd
       -0.021910515 -0.10647155 -0.12139582 -0.07419659
000210 08 5b dc bd 97 80 10 3e 03 22 f0 bd 7f f7 23 be
       -0.1075955 0.14111553 -0.11725237 -0.16012381
000220 63 dd b9 3c d6 5f 00 bb 83 4f a0 3c dc c7 0b 3e
       0.022688573 -0.0019588373 0.019569164 0.13650459
000230 db a5 be bc d5 a4 e0 3d 96 25 b9 3c 08 1d 44 3e
       -0.023272445 0.10968939 0.02260093 0.191517
000240 e1 c8 30 3e 56 9d 15 be a5 eb 06 bd ba e0 cb 3d
       0.17264129 -0.146108 -0.032939572 0.099549726
000250 32 6c 8f bd 72 14 dd 3d ba 27 9e bd e7 e3 9c 3d
       -0.070030585 0.10794915 -0.07722421 0.076606564
000260 61 09 39 bd ab ba ad bd 82 d7 6f 3c 24 b8 9d 3d
       -0.04517496 -0.0848287 0.014638783 0.07701138
000270 86 bc da bd ba df 05 3e 0b b9 08 be 85 1a b9 bd
       -0.10680489 0.13073626 -0.13351838 -0.09038261
000280 0e cc 80 3c a7 11 e6 bc 37 4b e0 3a c7 a1 d3 bd
       0.0157223 -0.02808459 0.001711226 -0.10333591
000290 0d d1 c1 bd 91 3a e7 3c b1 d9 18 3e 26 cb 8c bd
       -0.094637014 0.028226169 0.14926793 -0.06874685
0002a0 04 9f aa 3d b0 74 ef 3d c1 c3 e0 3d ac f5 29 be
       0.08331111 0.11692178 0.10974837 -0.16597623
0002b0 40 e1 fe 3d 97 78 fe bc 36 19 d3 3d 82 5e cc 3d
       0.12445307 -0.031063361 0.10307543 0.099789634
0002c0 59 5a 60 3d ff 69 18 bd b6 58 b8 bd b9 38 c9 3c
       0.054773662 -0.03721046 -0.09001295 0.02456318
0002d0 5e ea b6 3c db b0 dd 3b c7 63 bc bb bf 46 8a bd
       0.022328552 0.0067654676 -0.005749199 -0.06751775
0002e0 02 a9 ec 3d 10 6c 59 3c ab b3 56 3d 81 53 12 3e
       0.11555673 0.013270393 0.05241744 0.14289667
0002f0 da 08 c8 bd 24 04 33 3e 92 33 18 be 73 7e 9c 3d
       -0.09767313 0.17482048 -0.14863423 0.07641306
000300 ff ab cc bd 22 4b d6 3c 48 b3 de bd be 41 77 bd
       -0.09993743 0.026158873 -0.10874039 -0.06036543
000310 b6 d0 0f be af 93 8c bd 1f a2 41 3d 2e a2 0a be
       -0.1404446 -0.06864106 0.04727375 -0.13538429
000320 46 e4 bc bc 9e 48 a5 3d 5c cf 98 3d 00 42 14 3e
       -0.023058068 0.08070491 0.07461426 0.14478302
000330 b8 52 a0 3c 5d 8f 99 3d ed c7 c1 bd d9 1c 45 3c
       0.019570693 0.074980475 -0.09461961 0.012030804
000340 36 58 f8 3d 5b 1e 13 bd c5 08 86 bc 7d 7d 68 bd
       0.121262 -0.03591762 -0.016361604 -0.0567603
000350 ac ef 08 3e 6c fc 05 3e fa 5b db 3d 71 59 9e bd
       0.13372678 0.13084573 0.107109025 -0.07731903
000360 bb 6d dc bb e2 88 92 3b 58 0a ba 3d 64 21 5a 3d
       -0.006726948 0.004471884 0.09084004 0.0532545
000370 45 5f af 3d dc 05 18 3d 62 95 b6 3c 7a b9 5e 3c
       0.08563093 0.037114963 0.022288028 0.013594026
000380 aa 32 99 3d de a2 da 3d ba 30 6c b8 48 85 a5 3d
       0.074803665 0.10675596 -5.6312165e-05 0.08082062
000390 b6 2d ea 3d a3 00 37 3d 8b ed 98 bd 3e 4e 62 bd
       0.114345 0.04467834 -0.07467183 -0.0552504
0003a0 2e 8b ad bd 0d a8 10 3e 27 5d ca bd ae d9 f1 bd
       -0.08473812 0.14126606 -0.09881049 -0.11809097
0003b0 7e 64 89 3d 18 1d 91 bd 7b a2 57 be 66 57 25 3d
       0.067086205 -0.07085627 -0.21058075 0.040366553
0003c0 f5 54 c0 3d 0e e7 b2 3a 16 6b 29 3d 55 66 f4 bd
       0.09391204 0.0013649182 0.04136189 -0.11933581
0003d0 c1 59 0c 3e 17 b3 8b 3d af be 29 be 55 84 fb bd
       0.13706113 0.06821268 -0.16576646 -0.122811
0003e0 84 0d 08 3d 4a c7 42 3c 4b 8f 2a bb 5d 0b 10 bc
       0.033216015 0.0118883345 -0.002602535 -0.008791772
0003f0 92 53 82 3d 19 ee f7 bd 42 92 2c be 14 88 8d 3d
       0.06363596 -0.121059604 -0.16852668 0.069107205

arith.constant5 f4 [64]
000000 6a 68 5a 3f c6 08 62 be a5 30 04 3e 7b 7c 30 3e
       0.85315573 -0.2207366 0.12909181 0.17234986
000010 3e 99 c5 3e 38 14 1e bf 2a c6 fb be e3 65 04 3f
       0.38593477 -0.617496 -0.49174625 0.51717967
000020 94 c3 cf 3f 12 73 10 3f d0 9b e7 bd 57 17 9b 3f
       1.6231561 0.56425583 -0.11309016 1.2116498
000030 69 04 f4 3e c5 28 a9 3f e9 8d b4 3c da 00 e9 3f
       0.47659615 1.3215567 0.022040324 1.8203385
000040 db 10 1b be 7e fd 84 3e 53 27 28 3f 05 80 bd 3f
       -0.15143149 0.2597465 0.65685004 1.4804693
000050 80 dd 93 bc 4e e3 b0 3f 3b f2 80 bd 32 6b ea be
       -0.018049955 1.3819368 -0.06296202 -0.4578491
000060 fc 58 1b 3e fe f1 15 bf e8 da 96 3f 43 23 95 bf
       0.15170664 -0.58572376 1.1785555 -1.1651386
000070 3d ad 3d bf 56 3b c1 3d c1 44 de 3f 1d 16 5c bf
       -0.74092466 0.094351456 1.7364732 -0.8597124
000080 89 c0 16 c0 9d 0c 58 3f c5 86 a0 3e c1 b8 a7 3e
       -2.3555014 0.84394246 0.3135282 0.32758144
000090 17 18 ee 3d ce 69 07 3f 12 f1 32 3f 31 6b 19 3f
       0.116256885 0.5289582 0.69899094 0.59929186
0000a0 67 7a 8b bf 29 e0 3b 3f 44 01 d2 3e e2 05 9f 3c
       -1.0896729 0.73388916 0.4101659 0.019411985
0000b0 5f f1 4e be 24 db 52 bf 92 87 86 3f d9 bf 8d be
       -0.20209263 -0.8236563 1.0510123 -0.2768543
0000c0 22 70 86 3e e8 23 e1 be b9 dc 38 3f 73 3b fd be
       0.26257426 -0.43972707 0.72211796 -0.4945942
0000d0 fc 13 05 3e 85 0e b3 bf 92 c3 f8 be 97 b2 f0 bf
       0.12995905 -1.3988806 -0.48586708 -1.8804501
0000e0 cd 08 d6 3e 95 a8 56 3e 2d 0a d6 be d7 77 3f 3f
       0.4180359 0.20962746 -0.41804639 0.74792236
0000f0 c7 2f 90 3e 1b c7 aa 3b 20 94 0c 3f 3e 3d 10 be
       0.2816145 0.0052117235 0.5491352 -0.14085862

arith.constant6 f4 [128, 256]
000000 9f ed 97 3d d5 dc 3f 3d 83 7c b7 3d 35 a7 9e 3c
       0.074183695 0.04684146 0.089592956 0.01936684
000010 67 ec e2 bd 7c 9a b3 3d ed fc a2 3c af 26 01 3e
       -0.110802464 0.087697 0.019895995 0.12612413
000020 24 19 88 3d 42 22 74 bd 5f 24 e1 3d fc 3a c6 bd
       0.0664542 -0.059602983 0.10993265 -0.09679219
000030 36 54 04 bd 88 03 48 3d 76 7c c5 bd 3b 24 a5 bd
       -0.032306872 0.048831493 -0.0964288 -0.08063551
000040 c9 ce ca bd 72 69 b3 bc db cf c6 bd a4 22 0a 3e
       -0.099027224 -0.021900866 -0.09707614 0.13489777
000050 6d b6 ab 3d 81 70 80 3d cc c7 62 bd e5 c5 ad bd
       0.08384404 0.062714584 -0.055366322 -0.08485011
000060 01 35 33 3d 16 d2 b8 bd 2a c4 16 bd f6 44 98 3d
       0.04375172 -0.09024446 -0.03680817 0.07435028
000070 d0 98 a4 3b 17 42 d4 bd 32 58 06 bc 92 81 49 bd
       0.0050230995 -0.10364168 -0.008199738 -0.049195834
000080 fb af a1 bd 1d 2d e0 3d 93 e5 a0 bb 53 6d 0f 3d
       -0.07894894 0.10946105 -0.00491018 0.03501637
000090 36 8d 8a 3d 9a 37 9e bd cd 40 a6 3c 16 ea a5 bd
       0.06765215 -0.07725449 0.020294571 -0.08101289
0000a0 bc 3d ca 3d 37 73 08 3d f6 07 c5 bd 11 bd cd bd
       0.09875056 0.033313002 -0.09620659 -0.10045827
0000b0 53 4a 9a bd ec f4 35 bd 14 ed 99 3c 5b 5b 91 3d
       -0.075337075 -0.04442303 0.018789805 0.07097503
0000c0 af 54 e8 bd 90 55 4c 3d af e4 7f 3d e1 72 82 3d
       -0.11344277 0.049886286 0.06247395 0.06369568
0000d0 f9 03 ae 3c 0b e4 ac bd e3 ce 50 bb 0b a1 14 bd
       0.021242129 -0.08441933 -0.0031861595 -0.036286395
0000e0 27 7b 5c bd 7b b6 20 3c 21 38 76 bd 65 51 87 bd
       -0.053828385 0.009809132 -0.060112122 -0.06607322
0000f0 0a 59 4c bd 24 78 09 3e a1 54 1f bd 0d 9d 93 3d
       -0.0498896 0.13424736 -0.038899068 0.072076894
000100 68 84 d5 3d 5f 35 89 bd f6 c7 9e 3c dd 25 62 3c
       0.10425645 -0.06699633 0.019382458 0.013802973
000110 08 10 cb bd bf f4 b1 3d 73 5e b4 3c e3 dd 8a bd
       -0.09915167 0.0868926 0.022017693 -0.06780603
000120 7c db 74 bd 93 ad f0 bd 59 a0 a5 bd e1 44 9d 3d
       -0.05977963 -0.11751857 -0.080872245 0.07679153
000130 45 62 85 bd d0 56 78 bd 28 64 17 bd 43 a2 13 bd
       -0.06512884 -0.060629666 -0.03696075 -0.036043417
000140 29 40 07 bd ed 9f b4 bd b2 6a 0b 3b 40 cb 00 bc
       -0.033020172 -0.08819566 0.0021273312 -0.007860959
000150 47 52 76 bd db 6d b7 3d 88 91 ab bd 4c 2b da 3d
       -0.06013706 0.089565 -0.08377367 0.106527895
000160 8d 97 ae bd 4b 92 43 3d 99 97 87 3d ec 3c 2f bd
       -0.08525 0.047746938 0.06620712 -0.04278271
000170 f6 9b 7d bd a9 8d b5 bd f1 01 3d bd ce 95 de bd
       -0.061916314 -0.0886491 -0.04614443 -0.10868417
000180 f2 d5 f0 bd 64 07 85 bd 6b 0b 92 3d 39 ae df 3c
       -0.11759557 -0.0649555 0.07131084 0.027304756
000190 1f 4d 62 3d 88 42 82 bc 14 1f 92 3d 38 9a 91 bd
       0.05524933 -0.015900865 0.07134834 -0.07109493
0001a0 18 22 90 bd 26 ed c5 3d 73 11 16 3d 62 9d ff bc
       -0.07037753 0.09664373 0.036637735 -0.031202976
0001b0 33 d1 b7 3d bc 09 1a bd f8 f8 c1 bd 86 24 90 3d
       0.089754485 -0.03760694 -0.09471315 0.07038216
0001c0 dd 37 c7 3c 5b 6d 90 bd 04 64 1f 3d 6c ff 5a bd
       0.02431863 -0.07052108 0.03891374 -0.053466246
0001d0 db 41 a3 3d 4b fd ba bd 77 f7 48 bd 20 9c 25 bd
       0.07971545 -0.09130343 -0.049064126 -0.040432096
0001e0 87 9f b4 bd f4 f7 ad 3d 27 a4 c3 3d d3 28 c7 3b
       -0.0881949 0.08494559 0.09552794 0.0060778647
0001f0 ad 09 ee 3c 2b 3d 83 b9 45 fc c6 bd 01 16 b2 bd
       0.029057348 -0.0002503184 -0.09716085 -0.08695603
000200 84 9f 33 bd 27 39 94 3d 85 5a 3c 3d 17 0a c4 3c
       -0.043853298 0.072374634 0.045984764 0.023930592
000210 d1 2f 7d 3d 01 d1 b0 bd ea 1d bc 3c ad b9 03 be
       0.06181318 -0.08633614 0.022963483 -0.12863798
000220 97 8c e6 3c c3 6e 79 3d 1e 65 41 3d cb 07 e5 bd
       0.02814321 0.060896646 0.047215573 -0.11183127
000230 d3 3c 91 3d 3d 41 48 bd ca 41 85 bd 62 36 d3 3d
       0.070916794 -0.04889034 -0.06506689 0.10313107
000240 46 75 42 3d 96 5c 13 3d e7 57 bf 3d ad 4b a2 bc
       0.047475122 0.03597697 0.09342938 -0.019811476
000250 10 2a 70 3c 37 70 a0 3d 1d de 87 bd 85 40 60 3c
       0.014658466 0.07833903 -0.066341616 0.013687258
000260 05 0f 4a bd ca de b4 3d 57 44 66 3d 89 29 ca 3d
       -0.04933073 0.08831556 0.056217518 0.098712035
000270 42 ac f1 3d 33 2c 84 bd 39 66 06 3d 8f 63 c1 3c
       0.11800434 -0.06453743 0.03281233 0.023607044
000280 f1 5a 88 bd 96 4e 24 3c 98 c2 be 3d a0 8c 1f bd
       -0.06657971 0.010028502 0.093144596 -0.03895247
000290 20 e3 b3 3d 9d fd fe bc 50 5d 03 3e 6a ec eb 3c
       0.08783555 -0.031126792 0.12828565 0.028799254
0002a0 3d 96 c5 bb 7d 9c b1 3d d0 e3 5c 3d f0 ab 96 bd
       -0.0060298727 0.08672426 0.053928196 -0.07357013
0002b0 cb b9 f8 bb 35 4c 56 bc a1 a6 16 bc 9a d0 f8 3d
       -0.0075905076 -0.013079693 -0.009195001 0.121491626
0002c0 6b 38 39 3d ff 79 7f bd 57 08 1e 3c d0 9a 31 bd
       0.04521982 -0.062372204 0.009645543 -0.04336053
0002d0 fc 38 00 be 3f d5 6b bd ae fb a9 3c a7 c9 44 3d
       -0.12521738 -0.057576414 0.020749893 0.048043873
0002e0 22 0f 23 bd 00 0c a6 bd f7 32 2a bd 22 81 88 bd
       -0.039809354 -0.081077576 -0.04155251 -0.06665255
0002f0 22 fe ec bb 2b 43 45 3d 18 22 49 3c 3e d4 4f bc
       -0.0072324434 0.04815976 0.012276195 -0.01268488
000300 76 a2 4a 3d c4 51 90 bd e5 5e d7 bd 20 d3 fd 3c
       0.04947134 -0.070468456 -0.105161466 0.030984461
000310 02 7c 6c 3c d6 5a ff 3c 79 38 5c bd d3 67 90 3d
       0.014433863 0.031171244 -0.053764794 0.07051053
000320 6b 3e 82 3d 17 83 8f 3d b5 07 d2 3d 56 4c 7c 3d
       0.063595615 0.07007425 0.10255376 0.061596237
000330 a7 8e cc bd 7b 62 53 3d 1e 24 4d bd ee dd e6 bd
       -0.09988146 0.05160759 -0.050083272 -0.112727985
000340 c2 73 3f bc db 95 88 3d f0 f1 bd 3c f4 5b 9a 3c
       -0.011685314 0.06669208 0.023186654 0.018842675
000350 c9 92 c4 bb 80 b0 9a 3d d8 9a 6c bd eb 7d 3a bd
       -0.0059989435 0.07553196 -0.057764858 -0.04553024
000360 e6 22 60 bd 85 dc d4 3d de ed b2 bd 85 4f f9 3d
       -0.05472078 0.10393623 -0.08736776 0.1217337
000370 d8 56 98 bd b2 ab 99 bd 94 a0 64 bb d8 a0 e3 bd
       -0.07438439 -0.075034514 -0.003488575 -0.11114663
000380 b9 24 37 3c a9 00 a3 3d 1d 81 34 3c bd 46 34 3d
       0.011178189 0.0795911 0.011017111 0.044012774
000390 74 65 28 bd 77 b4 f1 bd d2 1e e6 3c 22 4b d1 3d
       -0.04111238 -0.11801999 0.028090868 0.102194086
0003a0 81 74 d9 bd bb 5c 86 bd 9f f1 80 bd f1 c0 06 bd
       -0.106179245 -0.06560656 -0.062960856 -0.032898847
0003b0 0d 3c c4 3c fb d2 d4 3d 2f a8 5e 3d 72 ce dc 3d
       0.023954416 0.10391804 0.05435961 0.10781564
0003c0 1a f8 44 3d c4 04 69 3c 85 c3 94 bc 43 3d 48 3d
       0.04808817 0.014222328 -0.018159637 0.04888655
0003d0 c6 f6 02 3e 8d ca 4e 3d 73 9f f0 3d ee 76 93 bc
       0.12789449 0.050486136 0.117491625 -0.018001046
0003e0 51 74 e1 3d 44 63 e1 3d 48 e4 cb 3d 26 f6 60 bd
       0.11008514 0.110052615 0.099556506 -0.054922245
0003f0 55 72 43 bd 99 70 5f 3d ef 1c de 3c 04 9f 0f bd
       -0.047716457 0.05455074 0.027113406 -0.03506376

arith.constant7 f4 [128]
000000 7d 9a 57 bd f2 0c 28 be 39 56 bd be 6c c2 91 bf
       -0.052637566 -0.16411188 -0.36979845 -1.1387458
000010 b3 63 ef 3e 73 bf 47 bf b2 b8 d8 be 41 34 44 3f
       0.46755752 -0.78026503 -0.4232841 0.76642233
000020 9f d9 6b bf b8 c3 9a 3f ea 1b 7d bf 28 d5 37 3e
       -0.9212894 1.2090979 -0.9887072 0.17952406
000030 a2 1e 6e 3d e1 e2 d2 be 1e d7 31 bf 3c 07 65 3e
       0.058134682 -0.4118872 -0.6946887 0.22366041
000040 3f 19 6f bf f9 83 6a bf ae e5 be bf 9f d5 57 bc
       -0.933979 -0.91607624 -1.4913843 -0.01317349
000050 fd 8e 41 3f 15 2f b0 3f b2 e8 41 3f 4c 3a 6e bd
       0.7560881 1.3764368 0.7574569 -0.058161065
000060 d2 4c 23 bf bf 9e 21 3f c0 9d d3 3e 22 89 49 3e
       -0.63789093 0.6313285 0.4133129 0.19681218
000070 37 9d 91 3f 43 81 26 3f 2a a1 2c be 01 0a 01 bf
       1.1376103 0.6504099 -0.16858354 -0.5040589
000080 f7 cf 03 40 ff bf 76 bf 3c f4 58 3f f3 78 16 3f
       2.0595682 -0.9638671 0.8474767 0.58778304
000090 01 d9 c1 3e c4 cf 84 bf 25 09 5e 3f c3 05 91 3f
       0.37860873 -1.0375905 0.86732703 1.1329883
0000a0 c4 1f 53 3f 07 57 e9 3e 5b 01 df 3e 7c c2 5c 3e
       0.82470345 0.4557421 0.43555722 0.21558565
0000b0 0f f6 66 3f 06 c1 46 3f 29 3b 62 3f e3 34 85 bf
       0.90219206 0.7763828 0.8837152 -1.0406765
0000c0 f8 06 96 3f 5d 5d c7 be 69 1c fd 3f 33 36 8e 3f
       1.1720877 -0.38938418 1.9774295 1.111029
0000d0 4c 51 f8 3f 6e 8a ee bd 76 50 2c bf 4d 5d 32 bc
       1.939981 -0.11647497 -0.67310274 -0.010886502
0000e0 d1 bd 58 be 8b 24 b8 be 6e 4f 7a be 92 44 93 3f
       -0.21166159 -0.3596538 -0.24444363 1.1505301
0000f0 8a 04 68 be 3f b3 43 3f 35 17 00 3e 4b ac a2 3f
       -0.22657982 0.7644538 0.12508853 1.270883
000100 c0 e3 57 bf f8 15 08 3f 32 f8 98 bf 7f c6 f0 3e
       -0.84331894 0.5315852 -1.1950743 0.4702644
000110 b2 5f 06 bf ae ad d6 be 7d af 6d 3f db c0 1f bf
       -0.5248977 -0.41929382 0.928459 -0.6240365
000120 a0 12 64 3f 9c 7e 07 3f ea 55 1a bf c7 37 ff 3d
       0.8909092 0.52927566 -0.60287344 0.124618106
000130 28 8e 8c be 06 56 c1 3e 42 77 a0 bf 68 e3 26 3f
       -0.27452207 0.37760943 -1.2536395 0.65190744
000140 0f 17 6f be 0c ae 02 be a0 96 32 3f b9 cc 43 3f
       -0.2334864 -0.12761706 0.69761086 0.76484257
000150 ab a5 96 3f 28 7c 5e bf 37 78 14 bf c0 96 1a bd
       1.1769308 -0.869082 -0.57995933 -0.037741423
000160 81 59 84 bf b9 4c 5b bf 6d 49 cf 3e 55 fc 41 3f
       -1.0339814 -0.85663944 0.40485707 0.75775653
000170 8c c0 e9 be 02 b2 a4 3f 24 18 39 bf a9 38 b5 3f
       -0.45654714 1.2866824 -0.7230246 1.4157916
000180 02 b9 5e bf 98 19 30 be a7 4c 4f bf f6 ce 07 3f
       -0.8700105 -0.17197263 -0.8097634 0.5305017
000190 c3 ec a1 3f 12 e5 5c bf cf f1 81 bf c8 c3 4b 3f
       1.2650379 -0.86287034 -1.0151919 0.79595613
0001a0 17 90 92 bf f9 45 7b 3e 40 2b 82 3f 99 a6 86 be
       -1.1450223 0.24538411 1.0169449 -0.2629898
0001b0 86 28 67 3f 9c b2 37 3f 43 ef 0a be 7f 09 5a bf
       0.9029621 0.7175691 -0.13567834 -0.8517074
0001c0 36 5b 3f 3f ef 2b 41 bd 13 62 87 3e 8a d0 5a 3f
       0.7474855 -0.04716104 0.26442012 0.85474455
0001d0 f1 24 a9 3e f4 94 5c 3f 27 df b1 3e d2 88 14 3f
       0.33035997 0.86164784 0.34740564 0.5802127
0001e0 c9 a9 d8 be 55 21 18 be 1d 71 47 3f 3b 7e a4 bf
       -0.42317036 -0.14856465 0.7790697 -1.2851022
0001f0 fd e2 fb 3f e6 dc 6f 3f 20 d2 11 3f 97 d0 15 bf
       1.9678646 0.9369644 0.5696125 -0.5852141

arith.constant8 f4 [256, 512]
000000 0f 95 59 3e 6d 5d 51 be ba fa 2c be c5 39 34 3e
       0.21248268 -0.20445795 -0.1689252 0.17600162
000010 64 fd 5f 3e 2e d6 72 3e 4e 1a 5a be 68 22 93 bd
       0.21874005 0.23714516 -0.21299097 -0.07184297
000020 16 5a 19 3e 01 a7 2d 3e ce a5 4e bd af 11 ea 3c
       0.14975771 0.16958238 -0.050451092 0.028572885
000030 2a 94 3e 3e de 51 ad 3e 6f c8 fe 3d 3f 79 49 3e
       0.18611208 0.33851522 0.124405734 0.19675158
000040 d9 ac 91 3d 17 d7 d6 bc 52 fb 10 be 9f 80 57 be
       0.07113046 -0.02622561 -0.14158371 -0.21045159
000050 29 81 f2 bc a6 dd 17 3e ea 6e e4 bd 60 6a be 3d
       -0.029602604 0.14830646 -0.11153968 0.09297633
000060 79 1a ca bd 4c d6 44 3d 17 1c 1a 3d e2 4d 82 3d
       -0.098683305 0.048055932 0.037624445 0.06362511
000070 b2 fe 83 bc 41 87 c8 bd 6a 02 cf 3d c8 df 43 bb
       -0.01611266 -0.09791423 0.10107882 -0.0029888023
000080 01 dc f9 3d e0 05 05 3e bf da 03 be f0 27 a6 3c
       0.122001655 0.12990522 -0.12876414 0.020282716
000090 33 c0 ba bd e8 1a d8 3d 88 6d 20 3e d7 cb 67 bd
       -0.0911869 0.10552007 0.15666783 -0.05659088
0000a0 64 29 32 3d 1b dd fb bd e9 d5 d8 bd ad 43 8c bd
       0.043496504 -0.12298032 -0.10587675 -0.06848846
0000b0 9b e9 87 be 72 d9 f2 3c fc ba c4 bd 67 fa 3d bc
       -0.26545414 0.029644702 -0.09605977 -0.011595345
0000c0 5f d9 53 3e 98 09 92 be 0d e2 0a 3e 6b f6 46 3e
       0.20688389 -0.28522944 0.13562794 0.19429938
0000d0 37 7c 19 3e ac 8d 0c be d2 69 8a be e4 2c 9d bd
       0.1498879 -0.13725919 -0.2703386 -0.07674578
0000e0 26 43 05 3e 28 e4 60 bd d2 2c d3 3d 1b e6 0a be
       0.13013896 -0.054905087 0.10311283 -0.13564341
0000f0 29 ec ea bd 84 cb 67 be f5 cf ad 3d 94 90 19 bd
       -0.11470825 -0.22636229 0.0848693 -0.037491396
000100 bd 18 6c 3e a2 71 b7 3d 7b ed 4b 3e c4 21 32 3e
       0.23056312 0.089572206 0.1991481 0.17395693
000110 da ce d2 3c 71 8c 2b be 0f a7 13 3d 18 9b 60 be
       0.0257334 -0.16752793 0.03604799 -0.21934164
000120 71 f4 20 be 62 d7 e9 bd 99 9a ad be 87 db c9 3d
       -0.15718247 -0.11418034 -0.3390701 0.09856325
000130 30 5a 1f 3e e8 a5 e7 3c 8d 4a f8 3c 49 c7 b2 3b
       0.15561748 0.028277352 0.030308986 0.0054558855
000140 0f c6 45 3e 30 a8 21 be 70 2d 13 bd a7 2f 28 be
       0.19313835 -0.15786815 -0.035932004 -0.16424428
000150 9d f2 a3 be 25 4c f5 bd 44 0a 7a 3c 7c c9 40 3e
       -0.32021037 -0.11977414 0.015261237 0.1882686
000160 64 08 8b be 23 2c 5b 3d fe 12 2c be 80 ca 80 3d
       -0.2715484 0.05350889 -0.1680412 0.06288624
000170 8b 02 ca ba a9 dd 84 bd 10 53 57 3e b1 19 82 3e
       -0.0015412135 -0.06487591 0.2102778 0.25410226
000180 74 45 b0 3e a3 ba 09 bd d2 4c c1 3c fc 0d cb bd
       0.3442799 -0.033625256 0.023596201 -0.09914777
000190 c3 d6 e5 3d 7a f2 aa 3d 7c 60 83 be 5e 90 9f bc
       0.11222603 0.0834703 -0.2565955 -0.01947802
0001a0 ce 47 90 be b0 1e fa 3d cf 01 22 3e 35 b9 81 be
       -0.28179783 0.122128844 0.15821002 -0.25336614
0001b0 18 33 6a 3c 6a 3f 62 3d c9 5d 29 3e 95 0d 7d 3e
       0.014294408 0.055236258 0.16539682 0.24712212
0001c0 04 a1 e1 3d 65 4e a9 bd c6 f0 a4 bd ac ae d4 3d
       0.110170394 -0.08266906 -0.080537364 0.103848785
0001d0 9f 32 78 be b8 f9 92 bc 9b 8c 53 3e b8 6d 86 bc
       -0.2423806 -0.01794134 0.20659105 -0.01640974
0001e0 8b 78 c2 bd b1 94 2d be 7c f6 17 be 1f be 4f bd
       -0.09495648 -0.16951253 -0.1484012 -0.050718423
0001f0 51 c2 23 be c6 27 17 be 90 98 14 3d 17 28 ac bd
       -0.15992095 -0.14761266 0.036278307 -0.08406084
000200 23 36 d1 3c 34 88 75 3e 50 ab 1f 3e 46 71 15 3e
       0.02553851 0.23977739 0.15592694 0.14593992
000210 81 ff 6a bd 73 23 31 3e d0 62 19 3e f0 b1 a4 3e
       -0.057372574 0.17298679 0.149791 0.32167006
000220 58 36 90 bd 31 4f 49 be 70 c1 12 be ba 6a 5f 3c
       -0.07041615 -0.19659115 -0.14331603 0.013636285
000230 be aa 72 3e 72 29 fd 3d 49 83 27 3e 4f 7f bc bd
       0.23697945 0.12361421 0.16358675 -0.0920397
000240 6f 3c 73 3e 9f 8b ba bd a2 cb 7e 3d 39 6f 8e bd
       0.23753522 -0.09108662 0.062205918 -0.06954808
000250 23 89 01 3e 96 eb 7b bd ba 58 7d bd d8 72 1f bd
       0.1264997 -0.06150397 -0.061852194 -0.038927883
000260 7e 2a 44 3e 69 1e d4 3d 2b 73 d7 bd ad d9 a6 bd
       0.19156834 0.10357363 -0.105200134 -0.08146987
000270 05 de be bc 47 18 b3 bc e3 2c f1 3d 40 e8 17 be
       -0.023299227 -0.021862162 0.117761396 -0.1483469
000280 07 64 1d be 8e 9a 74 3e d2 64 5b 3d 69 2f 6b be
       -0.15370189 0.23887083 0.053562947 -0.22967304
000290 ca c0 e5 bd b5 f3 8d 3d 93 51 05 be 46 5e 08 be
       -0.11218412 0.06931249 -0.130194 -0.13317212
0002a0 bc b9 f8 bc d2 45 f9 bc a6 68 ae 3d 94 0a 30 3d
       -0.030362003 -0.0304288 0.08516054 0.042978838
0002b0 d4 0d 91 3d 89 84 77 3e df 97 f7 3d 27 98 92 bd
       0.07082716 0.24171652 0.12089514 -0.07157927
0002c0 fb 71 23 3e 18 3d 6b 3e 17 94 1a be 23 2b 11 3e
       0.15961449 0.22972524 -0.15095554 0.14176612
0002d0 e4 ae c9 bd 23 76 5b be 61 57 19 be bb 1b 5e bc
       -0.09847811 -0.21431784 -0.14974739 -0.013556416
0002e0 6d bf 2e 3e d9 db 1c bc 18 02 13 be ec c2 60 3e
       0.1706521 -0.0095739 -0.14356267 0.21949357
0002f0 46 35 04 3d 4f af ee 3d 3c cc de bd a1 cd 4e be
       0.032277368 0.11654531 -0.10878798 -0.20195629
000300 ae e0 94 be 39 70 8f 3d 27 91 aa bd d4 08 7a be
       -0.29077667 0.07003827 -0.08328467 -0.2441743
000310 73 dd aa bc 3c ed 48 be f0 9a 9c 3c 12 4f 83 3e
       -0.020857548 -0.19621748 0.019116849 0.25646263
000320 30 0f bb 3d 07 ee 31 3e 9f 93 48 be 02 a5 19 be
       0.09133756 0.17375956 -0.19587563 -0.15004352
000330 cf 9f e6 bc 1e bd 36 be c2 e8 5a be 0b 8b 23 3e
       -0.028152375 -0.1784558 -0.21377853 0.1597101
000340 27 d0 0f bd d5 ca 09 be c7 d4 45 bc 6b 1c 45 3e
       -0.03511062 -0.1345628 -0.012074656 0.19249122
000350 b9 f0 2f 3e 1d 23 6d bd 35 ba 91 3d 68 08 6f be
       0.17181672 -0.057894815 0.07115594 -0.2334305
000360 f5 93 82 3d fc 58 46 3e e2 ab 0f 3e 5e 04 13 3e
       0.06375877 0.19369882 0.14030412 0.14357135
000370 48 66 41 3d ee 5a e5 3d 8b e6 63 be db 3b 31 be
       0.047216684 0.11198984 -0.22255914 -0.1730799
000380 59 e4 c6 3d b7 00 be bd 3d 6b 13 bd 2d 89 3d 3e
       0.097115226 -0.0927748 -0.035990942 0.1850936
000390 08 48 1c be 41 38 ae bd 75 5c 28 3e 39 e2 8f be
       -0.15261853 -0.08506823 0.1644152 -0.28102282
0003a0 bf 6b 41 be 0e af f0 bd 13 d1 31 be 4f 91 9b be
       -0.18888758 -0.11752139 -0.17364912 -0.303843
0003b0 29 3c 52 3e b9 a2 83 be 79 39 6f 3e 52 89 33 3e
       0.20530762 -0.25710085 0.23361768 0.17532852
0003c0 c6 44 fd bd a4 9f 85 3b 5f 16 10 be 6f 89 59 3e
       -0.12366633 0.0040778685 -0.14071034 0.21243833
0003d0 fc ba 56 3e 62 14 de 3d d4 10 1d be 26 45 76 3d
       0.20969766 0.108437315 -0.1533845 0.06012454
0003e0 55 d9 1a 3e 78 7d 13 3e bc 9a a3 3c b4 3f c3 3d
       0.15121968 0.14403331 0.019971244 0.09533635
0003f0 02 24 2c bd 7b 6d 03 bd 3e 3d 24 3e a2 f7 2b 3e
       -0.042026527 -0.03208683 0.16038987 0.16793683

arith.constant9 f4 [256]
000000 50 1a 96 be b5 b8 a6 bf e3 24 3b 3f 01 dd a7 bf
       -0.2931695 -1.3025118 0.7310316 -1.311432
000010 e9 5c 08 bf f0 69 b2 3f 14 d6 87 3d af b6 1b be
       -0.5326677 1.393858 0.06632629 -0.15206407
000020 75 55 07 c0 c0 d4 0c bf 9a 6c e9 bb 1b ce 7e bc
       -2.114591 -0.5501213 -0.007123542 -0.015552069
000030 56 37 89 3f 6c 20 89 3d 11 b4 80 3e 36 be 3a 3f
       1.0720012 0.06695637 0.2513738 0.7294649
000040 9f bc 9a 3e b5 5b 21 bf 46 50 10 bf e8 9e 2a 3f
       0.3022203 -0.6303056 -0.5637249 0.6664872
000050 ba c9 80 3d 2e 1b 4d bf ed 0e be bf 51 51 14 3f
       0.06288476 -0.801196 -1.4848305 0.5793658
000060 ea 9f be bf e5 7b 40 bf 29 db 0d bf 5d c8 f4 3f
       -1.4892552 -0.7518905 -0.55412537 1.9123646
000070 40 85 72 be 70 de 7b 3d 97 a3 13 bf 4d cd 89 3e
       -0.23683643 0.06149143 -0.57671493 0.26914445
000080 1f 80 09 3f 79 ec 23 3f 53 5e 9f bf a5 b8 80 bf
       0.5371112 0.64032704 -1.245066 -1.0056349
000090 20 96 06 bf 15 a8 5d 3e a4 a1 58 3f f1 a7 4e 40
       -0.5257282 0.2164615 0.84621644 3.2290003
0000a0 be 67 86 3f bb f4 8e bf 26 7c b2 3f 63 8c 95 be
       1.050041 -1.1168436 1.3944137 -0.2920867
0000b0 c2 73 a3 3e 90 38 8c be e1 23 2e 3f 4f 81 e3 be
       0.31924254 -0.27386904 0.68023497 -0.44434592
0000c0 b9 82 a3 3e c9 e6 b3 3e 6f a5 05 be a3 e7 43 3e
       0.3193567 0.35137013 -0.13051389 0.19131331
0000d0 4a 65 c6 3e a6 ad d3 bf fa 2f b8 3e cb df ac be
       0.38749152 -1.6537368 0.35974103 -0.3376449
0000e0 74 db 9f bf b6 a4 e6 3f 41 c6 d3 3e 5a ad 9f 3f
       -1.2488847 1.8019016 0.41362193 1.2474778
0000f0 4c 97 3d bf 2e b7 1b 3e 5d 8c 22 bf 36 c9 96 bf
       -0.74058986 0.15206596 -0.6349543 -1.1780155
000100 44 cc b5 bf 80 b0 ac 3f d0 70 cb 3e 52 f4 c5 3f
       -1.4202962 1.3491364 0.39734507 1.5465186
000110 60 0b e0 bf 0b 66 f2 3e a9 61 20 40 2c b4 95 3c
       -1.7503471 0.47343478 2.5059607 0.01827439
000120 b8 5b fe be ec 0a 1b 3f 5c 10 5f 3d 46 3a d8 3e
       -0.4967935 0.6056354 0.05445896 0.4223196
000130 3b c1 ad 3f 46 4d d4 bf 18 8e b8 bf 98 de 97 bb
       1.3574594 -1.6586082 -1.4418364 -0.0046346895
000140 6f 86 92 3e d5 0c 36 40 0b f9 f6 3f 5d 60 0b c0
       0.2861819 2.8445332 1.9294752 -2.1777565
000150 e2 ea 66 bf a6 5c df bf e1 95 4f 3f f2 ee c4 3f
       -0.9020215 -1.7450149 0.8108807 1.538542
000160 bd 48 88 3f d5 2f 2f 3f 30 4d ea 3e 95 8a 59 3f
       1.0647198 0.6843236 0.45762014 0.84977084
000170 78 b8 23 bf 0f d0 06 3f a4 26 a9 3f f4 a6 ab 3f
       -0.6395335 0.5266122 1.3214917 1.3410325
000180 63 6a d1 3e e0 27 0f 40 69 69 01 bf 2a 4e 17 3d
       0.4090148 2.2368088 -0.5055147 0.036939777
000190 eb 28 b6 bc 6a 7b ab be 39 f0 a8 3f 4a 16 90 3f
       -0.022236308 -0.33492595 1.319831 1.1256802
0001a0 f3 f4 1b bf 8c 15 5f 3e cf ab 1d 3f e9 3e 58 bf
       -0.6092064 0.21785563 0.61590284 -0.84470993
0001b0 22 25 cb 3f 47 c0 65 bf 5a 19 fa 3f 3d 06 27 c0
       1.5870707 -0.89746517 1.9538987 -2.6097558
0001c0 1d dd b5 3f cb 2f ce 3d a5 03 90 bf 5f 1d 18 bf
       1.4208103 0.100677095 -1.1251112 -0.59419817
0001d0 8b 7f 06 be 39 a0 03 be 57 f8 42 3f 44 fc 0d 40
       -0.13134591 -0.12854089 0.76160187 2.218522
0001e0 bd d0 12 3f 02 bd 67 bf a7 e9 bf bf 11 cc cf be
       0.5734976 -0.9052278 -1.499318 -0.40585378
0001f0 3a 0f ad be 63 57 2c bf ac a6 35 3d 41 69 c4 bf
       -0.3380068 -0.6732084 0.044348404 -1.5344621
000200 c1 9b 4d bf 54 7b 81 3f 14 a4 ab 3f df 1f 8b 3f
       -0.80315787 1.0115762 1.3409448 1.0869101
000210 83 02 8a bd 7c 50 90 bf f1 64 9c be ab d2 9b 3f
       -0.0673876 -1.1274562 -0.30545762 1.2173666
000220 c6 cb 49 3f ca 7d 56 3f ff ad db bf 6b d9 9a 3f
       0.7882656 0.8378569 -1.7162474 1.2097601
000230 58 08 bd be 32 3e 63 3f 69 85 4f 3f 4c 12 d0 3d
       -0.36920428 0.8876678 0.8106294 0.1015974
000240 28 b2 12 be 34 7e ad bc 68 65 03 3d 28 1e 62 bf
       -0.14325774 -0.021178342 0.03207913 -0.88327265
000250 2c e2 c2 bf 2d f8 d4 be 72 34 be 3e 81 65 5f be
       -1.5225272 -0.41595593 0.37149388 -0.21816064
000260 16 d7 1a bf c6 f8 47 bf 9b 71 7e 3f 00 bd 42 bf
       -0.60484445 -0.78113973 0.993921 -0.7606964
000270 8c 95 4a be 2d a2 91 3f 1d 99 ab 3f 37 30 86 3e
       -0.1978361 1.1377617 1.3406101 0.2620866
000280 0e b0 40 bf b6 87 5d 3f df d0 29 3f 60 36 c3 bf
       -0.7526864 0.86535203 0.66334337 -1.5250969
000290 cd 15 bc be 33 ec 82 bf a6 3d 12 3f bd 78 e7 be
       -0.36735383 -1.0228332 0.5712532 -0.45209303
0002a0 44 6c b1 be 91 85 84 3d 1a 54 3b 3f bc c4 89 bf
       -0.34652913 0.06470788 0.73175204 -1.0763164
0002b0 a9 d0 a6 3e bf 59 ee 3d bf 55 1a bd db 25 12 bf
       0.3258107 0.116382115 -0.03767943 -0.5708901
0002c0 bf bf 9c bf a4 93 c9 bf 2d b3 e8 be e8 e7 3b 3f
       -1.2246016 -1.5748181 -0.454492 0.73400736
0002d0 09 ec 95 bf 8e 6b 66 be 6b cd 5a be c5 e6 f5 3e
       -1.1712657 -0.22501966 -0.21367423 0.48027626
0002e0 e9 a9 3a 3f f7 69 93 3f ad 95 f8 3e 52 69 48 be
       0.7291551 1.1516713 0.48551694 -0.19571427
0002f0 c0 e9 59 3e 0f 3a c9 bf 92 f1 1c bf 31 e8 90 3f
       0.21280575 -1.5720843 -0.6130611 1.1320859
000300 73 46 9f bd ef c1 6b 3e 33 8c 03 3f f1 05 f9 3e
       -0.07777109 0.23023199 0.513858 0.48637345
000310 63 6d c4 3f 03 48 0a 3e fa f5 38 bf f4 92 f2 bd
       1.5345882 0.13504033 -0.7225033 -0.11844435
000320 42 be a4 3f 45 da 15 c0 4c 22 69 3e 70 c8 8d 3f
       1.2870562 -2.341447 0.2276699 1.1076794
000330 be 42 68 3f cf 42 10 bf e5 2d b7 3f c7 50 03 3e
       0.9072684 -0.5635194 1.4310881 0.12823783
000340 61 01 5b be 92 77 24 bf 61 63 ce 3e 7f 87 99 be
       -0.21387245 -0.6424495 0.40310195 -0.29986188
000350 69 e7 ee 3f 1b 4b a4 3f ac e9 2b 3f 6e 2d 25 3e
       1.8664371 1.283542 0.6715343 0.16130611
000360 fa 56 01 3f 0a ca ce be 10 c2 35 bf 28 ff ec 3e
       0.5052334 -0.4038852 -0.7099924 0.4628842
000370 bf 16 a5 be 56 41 86 3f b5 b5 16 bd fe c2 43 3f
       -0.32243916 1.0488689 -0.036794383 0.7646941
000380 39 27 82 3f 8a a2 16 3e ff 81 ae 3f 82 09 4c bd
       1.016822 0.14710441 1.3633422 -0.049813755
000390 fb cf 7d bf 50 26 f4 be 43 10 6b be 7a 7a 28 3f
       -0.9914548 -0.4768548 -0.22955422 0.65811884
0003a0 43 2b 09 40 0d 0c db bf a3 20 a3 3f 5b b1 3f 3e
       2.1432655 -1.7113053 1.2744335 0.1872
0003b0 f7 aa 0a bf c2 60 2c 3f d9 97 b4 3f 17 64 3a 3f
       -0.5416712 0.6733514 1.410884 0.72808975
0003c0 ee 4a 94 be 25 12 1e bf 0f 3a da 3f 09 ff 54 bf
       -0.28963417 -0.61746436 1.7048968 -0.8320165
0003d0 0c 64 1d 3f c4 d9 7f bf 50 52 db 3c 51 81 9b 3f
       0.61480784 -0.9994166 0.026772648 1.2148839
0003e0 7b 37 94 3f 81 e4 a8 be e5 20 71 be 2e 37 a6 bf
       1.1579431 -0.32986835 -0.23547705 -1.298559
0003f0 7c df cd 3f 61 b1 9f 3f 9d a6 5c be 8d 9d f9 3f
       1.6083827 1.2476007 -0.21547933 1.9501206
